models/mante_retrained_2pop.pt (torch_old, 149573 bytes, 11 tensors)

gaussian_basis f4 [7, 4096]
00000000: 3bd0 70bf 7620 18c0 a6c3 60bf 990c ac3e
00000010: 8958 b33d cc6b aebf ce34 b03e 7e86 b83f
00000020: d607 693e 19a3 6abf 2282 853f eb85 2c3d
00000030: 4808 14c0 4ecd a83e 5d47 e33f 5705 69bf
00000040: 4d97 27be 30d0 9bbf 8b20 a7bf e6fe 56bd
00000050: e972 10c0 97bd 123e 94ef 3e3d 73cf 833e
00000060: b50f e43f d9ae 39bf bd71 283e 823d cbbe
00000070: 38c7 da3e b4cc 4a3e 5770 adbf 0d0c 583f
00000080: 41b3 d2be 1814 75bf 806b a1bf 8254 9e3f
00000090: 1afb 91bf e160 4ebe efd8 6f3e b8c6 013f
000000a0: bec9 07c0 89f3 0abf a2ab a03e f77d b6bf
000000b0: 8fef 35bd 13ad 68bf 0964 8f3e 069d fcbe
000000c0: b2fc 043e 5074 2b3c 2699 1d3f 040c b73f
000000d0: 5ecd 1dbe 00bd 31bf fcb5 8c3f ecd2 0f40
000000e0: e7ec 373f c8fd f93e 129f 0ebf e58b 74bf
000000f0: a592 453f 607b 2a3f 9afd f93f c76e a1bd
00000100: b266 8e3f 9009 433f 477f 843f 4468 a03f
00000110: 8418 623f c8f4 68bf 44cc e9be 84ef 5c3f
00000120: ce76 82bd 0443 be3d 47bb 963f be57 0abf
00000130: c284 63be 2195 4d3f 9431 d13c 4bad eebd
00000140: 4715 253f 4471 88bd 00bf 8f3f 3c46 9fbb
00000150: 9069 2ebd ca30 73bf fc09 5e3e 59b9 f0be
00000160: d0ce b13f a463 693e 9a0a eabe f683 863e
00000170: 0966 8abf ae21 1fbf 6180 33c0 076f 413f
00000180: 3ae8 6bbf 8a22 783f 7798 bf3e 3e5d 6a3f
00000190: b24b 8b3f 4fdf 813f 4e9c 2e3e d616 27be
000001a0: 6ef1 593f 016b 3fbe a4a0 9c3f 039e ce3e
000001b0: b948 773f ed7d f3be a012 78bf 3f9a edbe
000001c0: 63a2 463e 2bdc acbe f0a7 bcbf 5c4b 1fbf
000001d0: 160b 263f fb3b 893f 7de1 213f 98a9 4b3f
000001e0: a658 30be 89d2 323f 9a1f b53f 03ee e53f
000001f0: 2feb 18bf ed02 1b3d 2742 22c0 d654 d8be
00000200: 0ff2 0ec0 f9f3 1040 2cf2 8b3f ecff 603d
00000210: 9811 9c3f ffab 2e3e 839a e3bf 7c8a 7c3f
00000220: c211 663f 857d 4bbe b9de c63e 22fb 563f
00000230: 61ab 4cbe e99a a03f 48f9 4d3f 673e bdbf
00000240: fd7c d23d 31e0 543f b284 cb3e efa4 193f
00000250: 1455 88bf a662 033f 7444 30bf 25d5 b3be
00000260: 6db4 f4be 7748 413f dba1 2840 409b 74bf
00000270: 2f88 49be 88aa 03c0 0787 ea3c 5f75 c93e
00000280: 9f2f 87bf ccd1 fb3e f9d3 63bf f217 4e3f
00000290: 2ae9 2bc0 5719 9dbf 312a 823f b13b 773e
000002a0: dd28 0940 1885 88bf b2d7 8fbf 07f9 8a3e
000002b0: 64fe 71bf f012 4b3f 2cd3 e5bf 3218 883f
000002c0: a982 3ebf 3b66 bb3f 5c85 7e3e 4335 4e3d
000002d0: 7e2a 943f 7bde d2bf ed3b 533f f837 cf3f
000002e0: 3c17 17bf 7066 833e 2064 9fbf a177 0ebe
000002f0: b748 1cbf 5f40 133f b8d1 0940 229a 28bf
00000300: a3ef dbbe ba0c 943f d46e ed3f 292f 84bf
00000310: 2d20 29bf 1d4c 073e 1a84 29bf fb7c 9dbf
00000320: 309b 0440 247b 353e 396c 9c3f dd2a efbe
00000330: ec23 36bf 4064 393e 995e 033e 7fa1 9c3e
00000340: 261b 81be 2d23 a43f f449 2fc0 17cd f5be
00000350: e00c 8cbf fb7e 99be 2953 3fbe af4b b8bf
00000360: 61a0 63be b44e d83f e322 ad3f 3612 2a3f
00000370: dad1 da3f 1738 a9bf 1627 8a3f 72e0 20bf
00000380: 48a5 243f b591 b0bf 70d8 db3d 7f32 11c0
00000390: 50b1 a2bf b068 6f3c 2ae7 11bf 965d 8fbf
000003a0: 1d1e 2c3e 6c9d bcbe 45d1 1940 0c97 4a3f
000003b0: 889c 353e 735d 70bf b659 583e faf4 bd3f
000003c0: 077d 0a3e 45b1 363f 1c37 08bf 3d2f 0040
000003d0: fbfb 89bf 2a7c 9ebe e7c3 9bbf 8474 213e
000003e0: a938 3f3f 4e86 b1be 3d22 d63f 893c 27bc
000003f0: 7688 1140 0f41 93bf 136d 1bbf a765 85be
-0.94067734 -2.3769813 -0.87798536 0.3360336 0.08757121 -1.3626647 0.34415287 1.4416044
0.22756895 -0.9165512 1.0430338 0.0421199 -2.3130054 0.32969135 1.7756153 -0.9102377
-0.1636631 -1.2172909 -1.3056806 -0.052489184 -2.2570136 0.14330135 0.0466152 0.2574421
1.7817293 -0.7253242 0.16449638 -0.39695364 0.42730117 0.1980465 -1.3549908 0.8439339
-0.41152385 -0.95733786 -1.2610931 1.236954 -1.1404755 -0.20154144 0.23422597 0.50693846
-2.1216884 -0.54277855 0.31380945 -1.4257191 -0.044417914 -0.9088909 0.28006008 -0.4933855
0.1298702 0.010464743 0.6156181 1.4300542 -0.15410373 -0.69429016 1.0993037 2.2472486
0.7184586 0.48826432 -0.5571147 -0.9552596 0.77176887 0.66594505 1.9530518 -0.07882457
1.112509 0.76186466 1.0351342 1.2531819 0.8831866 -0.90998507 -0.45663655 0.8630297
-0.063703164 0.09290126 1.1775903 -0.54040134 -0.22218612 0.8030568 0.025536336 -0.11654147
0.6448559 -0.06662229 1.1230164 -0.0048606675 -0.04258114 -0.9499632 0.21683496 -0.4701641
1.3891239 0.22791916 -0.45711213 0.26272553 -1.0812389 -0.62160766 -2.8047106 0.7556004
-0.92151225 0.969277 0.3742101 0.91548526 1.0882475 1.0146273 0.17051813 -0.16317305
0.8513402 -0.18693163 1.2236524 0.40354928 0.9659534 -0.4755701 -0.9690342 -0.46406743
0.19397883 -0.33761725 -1.473875 -0.62224364 0.64860666 1.072143 0.6323469 0.79555655
-0.17221317 0.698525 1.4150269 1.796326 -0.5973386 0.037844587 -2.5352876 -0.42252225
-2.233524 2.264891 1.093328 0.054931566 1.2192869 0.17057799 -1.7781528 0.9864881
0.89870846 -0.198721 0.388418 0.8397695 -0.19987251 1.2547275 0.804585 -1.4784669
0.10277746 0.8315459 0.39749676 0.60017294 -1.0650964 0.513224 -0.6885445 -0.35123554
-0.47793904 0.755012 2.6348789 -0.9554939 -0.19680856 -2.0572834 0.02862884 0.3934736
-1.0561408 0.491835 -0.8899532 0.8050529 -2.6861062 -1.2273358 1.0169126 0.24143864
2.143119 -1.0665617 -1.12377 0.27143118 -0.94528794 0.7932577 -1.795507 1.0632384
-0.7441812 1.4640573 0.2485556 0.050343763 1.1575468 -1.6474146 0.82513314 1.6188955
-0.5901983 0.2566409 -1.2452431 -0.13912822 -0.61048454 0.575201 2.1534252 -0.6586019
-0.42956266 1.1566384 1.8549447 -1.0326892 -0.6606472 0.13212629 -0.66217196 -1.2303766
2.071972 0.17722756 1.2220527 -0.4671239 -0.7114856 0.18104649 0.12829055 0.30591962
-0.25216025 1.2823235 -2.7388887 -0.48008034 -1.0941429 -0.2997969 -0.18684067 -1.4398097
-0.22229148 1.6899018 1.3526272 0.6643404 1.7095292 -1.3220242 1.0793178 -0.62842476
0.643147 -1.3794466 0.107346416 -2.268707 -1.2710361 0.014612362 -0.56993353 -1.1200435
0.16808362 -0.36838853 2.4033978 0.7913673 0.17735493 -0.9389259 0.21127972 1.4840386
0.13524257 0.7136424 -0.5320909 2.0028832 -1.0780023 -0.30954105 -1.216916 0.15767103
0.7469583 -0.3467278 1.6729199 -0.010207304 2.273954 -1.1504229 -0.6071331 -0.26054117

supports f4 [2, 4096]
00000000: 0000 803f 0000 803f 0000 803f 0000 803f
00000010: 0000 803f 0000 803f 0000 803f 0000 803f
00000020: 0000 803f 0000 803f 0000 803f 0000 803f
00000030: 0000 803f 0000 803f 0000 803f 0000 803f
00000040: 0000 803f 0000 803f 0000 803f 0000 803f
00000050: 0000 803f 0000 803f 0000 803f 0000 803f
00000060: 0000 803f 0000 803f 0000 803f 0000 803f
00000070: 0000 803f 0000 803f 0000 803f 0000 803f
00000080: 0000 803f 0000 803f 0000 803f 0000 803f
00000090: 0000 803f 0000 803f 0000 803f 0000 803f
000000a0: 0000 803f 0000 803f 0000 803f 0000 803f
000000b0: 0000 803f 0000 803f 0000 803f 0000 803f
000000c0: 0000 803f 0000 803f 0000 803f 0000 803f
000000d0: 0000 803f 0000 803f 0000 803f 0000 803f
000000e0: 0000 803f 0000 803f 0000 803f 0000 803f
000000f0: 0000 803f 0000 803f 0000 803f 0000 803f
00000100: 0000 803f 0000 803f 0000 803f 0000 803f
00000110: 0000 803f 0000 803f 0000 803f 0000 803f
00000120: 0000 803f 0000 803f 0000 803f 0000 803f
00000130: 0000 803f 0000 803f 0000 803f 0000 803f
00000140: 0000 803f 0000 803f 0000 803f 0000 803f
00000150: 0000 803f 0000 803f 0000 803f 0000 803f
00000160: 0000 803f 0000 803f 0000 803f 0000 803f
00000170: 0000 803f 0000 803f 0000 803f 0000 803f
00000180: 0000 803f 0000 803f 0000 803f 0000 803f
00000190: 0000 803f 0000 803f 0000 803f 0000 803f
000001a0: 0000 803f 0000 803f 0000 803f 0000 803f
000001b0: 0000 803f 0000 803f 0000 803f 0000 803f
000001c0: 0000 803f 0000 803f 0000 803f 0000 803f
000001d0: 0000 803f 0000 803f 0000 803f 0000 803f
000001e0: 0000 803f 0000 803f 0000 803f 0000 803f
000001f0: 0000 803f 0000 803f 0000 803f 0000 803f
00000200: 0000 803f 0000 803f 0000 803f 0000 803f
00000210: 0000 803f 0000 803f 0000 803f 0000 803f
00000220: 0000 803f 0000 803f 0000 803f 0000 803f
00000230: 0000 803f 0000 803f 0000 803f 0000 803f
00000240: 0000 803f 0000 803f 0000 803f 0000 803f
00000250: 0000 803f 0000 803f 0000 803f 0000 803f
00000260: 0000 803f 0000 803f 0000 803f 0000 803f
00000270: 0000 803f 0000 803f 0000 803f 0000 803f
00000280: 0000 803f 0000 803f 0000 803f 0000 803f
00000290: 0000 803f 0000 803f 0000 803f 0000 803f
000002a0: 0000 803f 0000 803f 0000 803f 0000 803f
000002b0: 0000 803f 0000 803f 0000 803f 0000 803f
000002c0: 0000 803f 0000 803f 0000 803f 0000 803f
000002d0: 0000 803f 0000 803f 0000 803f 0000 803f
000002e0: 0000 803f 0000 803f 0000 803f 0000 803f
000002f0: 0000 803f 0000 803f 0000 803f 0000 803f
00000300: 0000 803f 0000 803f 0000 803f 0000 803f
00000310: 0000 803f 0000 803f 0000 803f 0000 803f
00000320: 0000 803f 0000 803f 0000 803f 0000 803f
00000330: 0000 803f 0000 803f 0000 803f 0000 803f
00000340: 0000 803f 0000 803f 0000 803f 0000 803f
00000350: 0000 803f 0000 803f 0000 803f 0000 803f
00000360: 0000 803f 0000 803f 0000 803f 0000 803f
00000370: 0000 803f 0000 803f 0000 803f 0000 803f
00000380: 0000 803f 0000 803f 0000 803f 0000 803f
00000390: 0000 803f 0000 803f 0000 803f 0000 803f
000003a0: 0000 803f 0000 803f 0000 803f 0000 803f
000003b0: 0000 803f 0000 803f 0000 803f 0000 803f
000003c0: 0000 803f 0000 803f 0000 803f 0000 803f
000003d0: 0000 803f 0000 803f 0000 803f 0000 803f
000003e0: 0000 803f 0000 803f 0000 803f 0000 803f
000003f0: 0000 803f 0000 803f 0000 803f 0000 803f
1.0 1.0 1.0 1.0 1.0 1.0 1.0 1.0
1.0 1.0 1.0 1.0 1.0 1.0 1.0 1.0
1.0 1.0 1.0 1.0 1.0 1.0 1.0 1.0
1.0 1.0 1.0 1.0 1.0 1.0 1.0 1.0
1.0 1.0 1.0 1.0 1.0 1.0 1.0 1.0
1.0 1.0 1.0 1.0 1.0 1.0 1.0 1.0
1.0 1.0 1.0 1.0 1.0 1.0 1.0 1.0
1.0 1.0 1.0 1.0 1.0 1.0 1.0 1.0
1.0 1.0 1.0 1.0 1.0 1.0 1.0 1.0
1.0 1.0 1.0 1.0 1.0 1.0 1.0 1.0
1.0 1.0 1.0 1.0 1.0 1.0 1.0 1.0
1.0 1.0 1.0 1.0 1.0 1.0 1.0 1.0
1.0 1.0 1.0 1.0 1.0 1.0 1.0 1.0
1.0 1.0 1.0 1.0 1.0 1.0 1.0 1.0
1.0 1.0 1.0 1.0 1.0 1.0 1.0 1.0
1.0 1.0 1.0 1.0 1.0 1.0 1.0 1.0
1.0 1.0 1.0 1.0 1.0 1.0 1.0 1.0
1.0 1.0 1.0 1.0 1.0 1.0 1.0 1.0
1.0 1.0 1.0 1.0 1.0 1.0 1.0 1.0
1.0 1.0 1.0 1.0 1.0 1.0 1.0 1.0
1.0 1.0 1.0 1.0 1.0 1.0 1.0 1.0
1.0 1.0 1.0 1.0 1.0 1.0 1.0 1.0
1.0 1.0 1.0 1.0 1.0 1.0 1.0 1.0
1.0 1.0 1.0 1.0 1.0 1.0 1.0 1.0
1.0 1.0 1.0 1.0 1.0 1.0 1.0 1.0
1.0 1.0 1.0 1.0 1.0 1.0 1.0 1.0
1.0 1.0 1.0 1.0 1.0 1.0 1.0 1.0
1.0 1.0 1.0 1.0 1.0 1.0 1.0 1.0
1.0 1.0 1.0 1.0 1.0 1.0 1.0 1.0
1.0 1.0 1.0 1.0 1.0 1.0 1.0 1.0
1.0 1.0 1.0 1.0 1.0 1.0 1.0 1.0
1.0 1.0 1.0 1.0 1.0 1.0 1.0 1.0

weights f8 [2]
00000000: 0000 0000 0000 e03f 0000 0000 0000 e03f
0.5 0.5

wi_weights f4 [4, 2, 7]
00000000: fefa 27bb 7ebb 5f3e d0dc 4b3f d2ed eebc
00000010: 9d8b 473d 5ada 4bbe f7fc c3bd 4a01 863c
00000020: 8110 90be bee9 3bbf e428 d53e f6a3 003f
00000030: ab19 133f 703f 183e eb49 cfbb d4c8 b8be
00000040: 8ba5 943e f0f8 523f d951 263d 8c7e fe3e
00000050: 558c c63d a39c 8dbd 4e59 aa3e 5d76 1fbf
00000060: 5943 fbbe 25d5 2dbe 65a8 8dbe 5e7a 99bc
00000070: 08c0 23b7 23d9 61bb 4369 253d 4915 a13b
00000080: 094b b5bf 1d71 a53d b0d9 dabd 3580 083f
00000090: 1cce f13d e229 54bd 0d63 9c3d f251 d9bb
000000a0: 8619 edbc ff0c 4fbd 2ea8 76be 59db 1d3b
000000b0: 26a9 7abc ba20 debc 64c1 b53b 138d 573d
000000c0: cf76 7d3d e23a 5abb 22e2 223b e710 f23c
000000d0: fa12 93b9 9a8a cd3f a904 b1bf b41a 3a3d
-0.002563178 0.21848866 0.7963381 -0.029166136 0.04871713 -0.19907513 -0.095697336 0.016358037
-0.2813759 -0.7340354 0.4163276 0.50250185 0.5746104 0.1486795 -0.0063259504 -0.3609072
0.2903255 0.824111 0.0406054 0.49705923 0.09694735 -0.06914642 0.3327126 -0.62289983
-0.4907482 -0.1697584 -0.27667537 -0.018735107 -9.760268e-06 -0.00344617 0.04038359 0.0049158675
-1.4163524 0.08078215 -0.10686052 0.5332063 0.1180689 -0.051797755 0.0763608 -0.006632083
-0.028942835 -0.050549503 -0.24087593 0.002408704 -0.015299117 -0.027115215 0.0055467356 0.052624773
0.061880883 -0.0033299257 0.0024854024 0.029549075 -0.00028052164 1.6057923 -1.3829547 0.045435622

m_weights f4 [1, 2, 7]
00000000: 0e9e 833b a43f 023a a812 613a 4c0e 173c
00000010: 8cbd 05bb 5062 b9bc 18f9 dbbc 76d0 953b
00000020: 8e8c 0f3b 56a4 02bb f628 333c 1a1a 63bc
00000030: 7af7 93bc 4117 a0bc
0.0040166443 0.00049685896 0.0008585849 0.009219717 -0.0020407168 -0.022629887 -0.026852176 0.0045719696
0.0021903845 -0.0019934378 0.010935059 -0.013861204 -0.018062342 -0.019542338

n_weights f4 [1, 2, 7]
00000000: 23df 2c3a 75a1 e43a 5425 b03b b60a 2abc
00000010: 2e7e f6b7 7804 83bc 57af 85bb 4e65 6a3a
00000020: c5ae 14ba 24fa 81b9 f47f 44bc d0f9 55bc
00000030: c7dd 88bc 91d5 7abb
0.0006594529 0.0017443137 0.0053755436 -0.01037853 -2.9384242e-05 -0.015993342 -0.00407974 0.0008941487
-0.00056717946 -0.00024791167 -0.011993397 -0.013060048 -0.016707314 -0.0038274268

wo_weights f4 [1, 2, 7]
00000000: 8ae1 b5b9 679e e1b9 0c18 8d3a 41b0 ccba
00000010: 0a53 d8b8 94ab 35ba c0c6 733a b4b8 8d38
00000020: d6b3 94b9 1200 4fb9 7ac0 1abb 9c2e 3fba
00000030: 022a 02ba 453b 323a
-0.0003469105 -0.00043033363 0.0010764613 -0.0015616493 -0.0001031515 -0.0006930169 0.00092993304 6.7578076e-05
-0.00028362748 -0.00019741085 -0.002361326 -0.0007293017 -0.0004965366 0.0006798993

wi_biases f4 [4, 2]
00000000: 51ef cf3c 8dea fbbb 3059 e63b ed60 21bd
00000010: 8dce 553d a811 85bc 8df8 063c 6171 9dbd
0.02538267 -0.0076878727 0.007029675 -0.039399076 0.052198935 -0.01624377 0.00823797 -0.07687641

m_biases f4 [1, 2]
00000000: 8878 5cb9 2289 b7b9
-0.00021025736 -0.00035006652

n_biases f4 [1, 2]
00000000: 0ced f938 3e9a 6cba
0.00011917399 -0.00090256694

h0_weights f4 [2, 7]
00000000: 0000 0000 0000 0000 0000 0000 0000 0000
00000010: 0000 0000 0000 0000 0000 0000 0000 0000
00000020: 0000 0000 0000 0000 0000 0000 0000 0000
00000030: 0000 0000 0000 0000
0.0 0.0 0.0 0.0 0.0 0.0 0.0 0.0
0.0 0.0 0.0 0.0 0.0 0.0
